pre-initialized with BERT weights
HyperNetDynamicLinear(
  (base_Linear): Linear(in_features=768, out_features=768, bias=True)
  (low_rank_weight_factor): Linear(in_features=768, out_features=50, bias=False)
  (low_rank_hypernet): Sequential(
    (0): Linear(in_features=12, out_features=64, bias=True)
    (1): ReLU()
    (2): Linear(in_features=64, out_features=38400, bias=True)
  )
)
HyperNetDynamicLinear(
  (base_Linear): Linear(in_features=768, out_features=768, bias=True)
  (low_rank_weight_factor): Linear(in_features=768, out_features=50, bias=False)
  (low_rank_hypernet): Sequential(
    (0): Linear(in_features=12, out_features=64, bias=True)
    (1): ReLU()
    (2): Linear(in_features=64, out_features=38400, bias=True)
  )
)
HyperNetDynamicLinear(
  (base_Linear): Linear(in_features=768, out_features=768, bias=True)
  (low_rank_weight_factor): Linear(in_features=768, out_features=50, bias=False)
  (low_rank_hypernet): Sequential(
    (0): Linear(in_features=12, out_features=64, bias=True)
    (1): ReLU()
    (2): Linear(in_features=64, out_features=38400, bias=True)
  )
)
HyperNetDynamicLinear(
  (base_Linear): Linear(in_features=768, out_features=768, bias=True)
  (low_rank_weight_factor): Linear(in_features=768, out_features=50, bias=False)
  (low_rank_hypernet): Sequential(
    (0): Linear(in_features=12, out_features=64, bias=True)
    (1): ReLU()
    (2): Linear(in_features=64, out_features=38400, bias=True)
  )
)
HyperNetDynamicLinear(
  (base_Linear): Linear(in_features=768, out_features=768, bias=True)
  (low_rank_weight_factor): Linear(in_features=768, out_features=50, bias=False)
  (low_rank_hypernet): Sequential(
    (0): Linear(in_features=12, out_features=64, bias=True)
    (1): ReLU()
    (2): Linear(in_features=64, out_features=38400, bias=True)
  )
)
HyperNetDynamicLinear(
  (base_Linear): Linear(in_features=768, out_features=768, bias=True)
  (low_rank_weight_factor): Linear(in_features=768, out_features=50, bias=False)
  (low_rank_hypernet): Sequential(
    (0): Linear(in_features=12, out_features=64, bias=True)
    (1): ReLU()
    (2): Linear(in_features=64, out_features=38400, bias=True)
  )
)
HyperNetDynamicLinear(
  (base_Linear): Linear(in_features=768, out_features=768, bias=True)
  (low_rank_weight_factor): Linear(in_features=768, out_features=50, bias=False)
  (low_rank_hypernet): Sequential(
    (0): Linear(in_features=12, out_features=64, bias=True)
    (1): ReLU()
    (2): Linear(in_features=64, out_features=38400, bias=True)
  )
)
HyperNetDynamicLinear(
  (base_Linear): Linear(in_features=768, out_features=768, bias=True)
  (low_rank_weight_factor): Linear(in_features=768, out_features=50, bias=False)
  (low_rank_hypernet): Sequential(
    (0): Linear(in_features=12, out_features=64, bias=True)
    (1): ReLU()
    (2): Linear(in_features=64, out_features=38400, bias=True)
  )
)
HyperNetDynamicLinear(
  (base_Linear): Linear(in_features=768, out_features=768, bias=True)
  (low_rank_weight_factor): Linear(in_features=768, out_features=50, bias=False)
  (low_rank_hypernet): Sequential(
    (0): Linear(in_features=12, out_features=64, bias=True)
    (1): ReLU()
    (2): Linear(in_features=64, out_features=38400, bias=True)
  )
)
HyperNetDynamicLinear(
  (base_Linear): Linear(in_features=768, out_features=768, bias=True)
  (low_rank_weight_factor): Linear(in_features=768, out_features=50, bias=False)
  (low_rank_hypernet): Sequential(
    (0): Linear(in_features=12, out_features=64, bias=True)
    (1): ReLU()
    (2): Linear(in_features=64, out_features=38400, bias=True)
  )
)
HyperNetDynamicLinear(
  (base_Linear): Linear(in_features=768, out_features=768, bias=True)
  (low_rank_weight_factor): Linear(in_features=768, out_features=50, bias=False)
  (low_rank_hypernet): Sequential(
    (0): Linear(in_features=12, out_features=64, bias=True)
    (1): ReLU()
    (2): Linear(in_features=64, out_features=38400, bias=True)
  )
)
HyperNetDynamicLinear(
  (base_Linear): Linear(in_features=768, out_features=768, bias=True)
  (low_rank_weight_factor): Linear(in_features=768, out_features=50, bias=False)
  (low_rank_hypernet): Sequential(
    (0): Linear(in_features=12, out_features=64, bias=True)
    (1): ReLU()
    (2): Linear(in_features=64, out_features=38400, bias=True)
  )
)
bert.embeddings.position_ids
bert.embeddings.word_embeddings.weight
bert.embeddings.position_embeddings.weight
bert.embeddings.token_type_embeddings.weight
bert.embeddings.LayerNorm.weight
bert.embeddings.LayerNorm.bias
bert.encoder.layer.0.input_bottleneck.active_arch_embed
bert.encoder.layer.0.input_bottleneck.base_Linear.weight
bert.encoder.layer.0.input_bottleneck.base_Linear.bias
…
